models/pretrained/srcnn.pth (torch, 35238 bytes, 5 tensors)

conv1.weight f4 [64, 1, 9, 9]
-0.09043391 -0.07589459 0.040904943 0.09337448 0.10937323 -0.05744056 0.0814021 -0.008300113
0.019671394 0.049491625 0.07429219 0.035376832 -0.023290815 0.074686036 -0.08113716 -0.07850073
0.0897171 0.023721177 -0.013380931 0.058403403 -0.005729283 -0.065004356 0.15601872 -0.056894153
-0.052078124 -0.0098017575 0.024353176 0.03320934 0.042821866 0.09882545 -0.06731012 0.15813503
0.041162357 0.01093436 -0.054418072 0.0199554 -0.06541148 -0.040502634 -0.03533131 0.04655873
-0.0217075 -0.012138116 0.08317744 0.08214437 0.088686705 -0.04615069 -0.03661867 0.05106989
0.0898192 0.11567207 0.029507887 -0.04027659 -0.016372252 -0.042007525 0.09615473 0.08750218
0.0025168164 0.098493814 0.04296368 -0.05549592 0.045165975 -0.08260669 0.052946668 -0.07753161
0.00896918 -0.083481826 -0.054943647 0.09475303 0.078316055 -0.077021316 0.08142016 0.11020943
-0.068012044 -0.071419746 0.026502078 0.015131757 -0.045747217 -0.017321846 0.0062667225 -0.07610091
-0.060492583 0.066312835 0.031047048 0.098764345 -0.019071577 0.11062773 -0.028503932 -0.066830635
0.04242937 -0.039236892 -0.09471889 -0.08761215 -0.011528773 0.030731872 -0.09389006 -0.034259856
0.00609493 0.009631803 0.09137778 -0.020865485 0.034112636 -0.04462785 -0.078940526 0.06355932
0.02838469 -0.0011935896 0.048073947 0.07338022 0.049052134 0.002176027 -0.032304663 0.036387447
0.062318377 0.033345614 -0.039201792 -0.0938416 0.07992022 0.053360324 0.038201097 -0.099414214
0.09720722 0.09744431 0.07445997 -0.04609358 0.033853844 0.08915123 0.03669494 -0.04709919
-0.026449462 -0.08719436 0.032776736 -0.024568416 0.042779293 0.0018763702 -0.0013129137 0.019668903
-0.058596887 -0.032725096 0.083018735 0.08539606 0.038782533 0.03974867 -0.1068973 -0.04455663
0.0026612012 0.016847985 -0.04958724 0.0803517 -0.007756449 -0.07108734 0.016074818 0.09620685
-0.045767546 -0.013863588 0.080073915 -0.032374118 0.10025143 -0.050306942 0.0528872 -0.10582737
0.046543483 -0.00010095809 -0.07695038 0.10172233 0.0552303 -0.006949332 0.08919835 -0.09900594
-0.017522406 -0.0297805 0.108735055 -0.018841377 0.050144505 -0.033286937 0.021769669 0.021856638
0.082539536 -0.048870225 -0.012453239 0.035463635 0.056596216 0.0461098 0.013652104 -0.09316668
-0.10566488 0.0932292 0.0128541365 -0.116170116 0.07670545 -0.03593894 -0.06521522 -0.08035104
-0.065415576 -0.04245859 0.089727536 -0.10066806 -0.040574975 0.105856456 0.008337134 0.07289807
0.087357774 0.04800815 0.058816765 0.07290096 0.041416284 0.09049672 0.07348963 0.053668667
0.07414815 0.009092966 -0.043027725 0.0152154155 -0.07347057 0.105025254 0.037908945 -0.040691566
-0.010059667 -0.04980526 0.008584456 -0.03381031 0.060087565 0.044536542 -0.059659608 -0.10889341
-0.04958562 -0.036266435 0.07383601 -0.036270555 0.06009866 0.12558545 0.03178831 -0.08535538
0.1017213 0.030004038 -0.07407463 -0.05940603 0.03687326 -0.083799236 0.030874519 -0.0025282837
0.018987875 -0.110751905 -0.07663376 0.06934262 -0.07555948 -0.118462585 -0.057497073 -0.0060864943
-0.034493778 -0.020244926 -0.036881935 0.05257595 0.010345404 -0.030717593 0.009669619 0.09677077
00000000: 6a35 b9bd 9f6e 9bbd f18b 273d 1f3b bf3d
00000010: 12ff df3d cb46 6bbd 25b6 a63d 32fd 07bc
00000020: e725 a13c bbb7 4a3d 8126 983d 4ce7 103d
00000030: 61cc bebc fef4 983d 3d2b a6bd fec4 a0bd
00000040: 99bd b73d ea52 c23c b13b 5bbc 6838 6f3d
00000050: b6bc bbbb 0121 85bd 5fc3 1f3e d809 69bd
00000060: df4f 55bd 8d97 20bc 5080 c73c 8406 083d
00000070: fb65 2f3d ff64 ca3d e3d9 89bd 26ee 213e
00000080: dc99 283d 0826 333c 7ce5 5ebd 8279 a33c
00000090: 74f6 85bd 17e6 25bd 90b7 10bd 5eb4 3e3d
000000a0: edd3 b1bc f3de 46bc ef58 aa3d 4f3b a83d
000000b0: 60a1 b53d 8208 3dbd 75fd 15bd a92e 513d
000000c0: 21f3 b73d 7ae5 ec3d 86ba f13c 11f9 24bd
000000d0: 1a1f 86bc 1510 2cbd c5ec c43d 5834 b33d
000000e0: 2cf1 243b 20b7 c93d affa 2f3d b14f 63bd
000000f0: f5ff 383d b22d a9bd 9bde 583d e5c8 9ebd
00000100: 78f3 123c 85f8 aabd 970c 61bd e00d c23d
00000110: 2b64 a03d 5abd 9dbd 9dbf a63d 7bb5 e13d
00000120: e649 8bbd 8444 92bd e31a d93c 30eb 773c
00000130: 6f61 3bbd 8be6 8dbc 1459 cd3b cbda 9bbd
00000140: 12c7 77bd 06cf 873d 6156 fe3c f644 ca3d
00000150: ff3b 9cbc cb90 e23d 1481 e9bc 80de 88bd
00000160: 6bca 2d3d ddb6 20bd fafb c1bd 006e b3bd
00000170: 2ee3 3cbc 68c1 fb3c 6f49 c0bd 1054 0cbd
00000180: fbb7 c73b b6ce 1d3c 4624 bb3d 18ee aabc
00000190: b1b9 0b3d b1cb 36bd 92ab a1bd 642b 823d
000001a0: 0287 e83c 3972 9cba 30e9 443d 5e48 963d
000001b0: e4ea 483d ad9b 0e3b e551 04bd 010b 153d
000001c0: 8e41 7f3d 6995 083d 0f92 20bd 0630 c0bd
000001d0: 36ad a33d 5b90 5a3d c178 1c3d ae99 cbbd
000001e0: 9414 c73d e290 c73d 787e 983d 9fcc 3cbd
000001f0: 54aa 0a3d ec94 b63d 6f4d 163d 15eb 40bd
00000200: 8bac d8bc f592 b2bd e640 063d b443 c9bc
00000210: 5739 2f3d 89f0 f53a 1316 acba ae20 a13c
00000220: 4a03 70bd c00a 06bd ba05 aa3d 21e4 ae3d
00000230: 6fda 1e3d 80cf 223d f9ec dabd 0381 36bd
00000240: 8c67 2e3b c904 8a3c fd1b 4bbd 6f8f a43d
00000250: cf29 febb 3d96 91bd 56af 833c 1908 c53d
00000260: c076 3bbd 1a24 63bc cbfd a33d b99a 04bd
00000270: 9f50 cd3d a70e 4ebd 40a0 583d 05bc d8bd
00000280: 61a4 3e3d 76b9 d3b8 2998 9dbd cc53 d03d
00000290: 2b39 623d 39b7 e3bb a0ad b63d a0c3 cabd
000002a0: 268b 8fbc 3cf6 f3bc 7cb0 de3d 3b59 9abc
000002b0: 5364 4d3d e257 08bd 4e56 b23c b10c b33c
000002c0: 7d0a a93d 252c 48bd ac08 4cbc 5142 113d
000002d0: 6fd1 673d a1dd 3c3d 13ad 5f3c 2cce bebd
000002e0: d466 d8bd f3ee be3d 289a 523c 99ea edbd
000002f0: bf17 9d3d b634 13bd 8f8f 85bd 168f a4bd
00000300: 9af8 85bd 0fe9 2dbd 12c3 b73d 0e2b cebd
00000310: f231 26bd 45cb d83d 7998 083c 954b 953d
00000320: a2e8 b23d 32a4 443d d9e9 703d 194d 953d
00000330: 1fa4 293d 5856 b93d bb81 963d add3 5b3d
00000340: fcda 973d aafa 143c d73d 30bd 144a 793c
00000350: bd77 96bd 7b17 d73d 6946 1b3d 33ac 26bd
00000360: 4dd1 24bc 9a00 4cbd d1a5 0c3c ae7c 0abd
00000370: 611e 763d f36b 363d a25d 74bd 8203 dfbd
00000380: 4b1a 4bbd 1d8c 14bd 5637 973d 6f90 14bd
00000390: 032a 763d 7999 003e 7534 023d cdce aebd
000003a0: 4253 d03d 07cb f53c 71b4 97bd bd53 73bd
000003b0: 6a08 173d ef9e abbd 8fec fc3c 90b1 25bb
000003c0: 768c 9b3c e5d1 e2bd 29f2 9cbd 8103 8e3d
000003d0: eebe 9abd 839c f2bd 0d82 6bbd 3771 c7bb
000003e0: 5949 0dbd b0d8 a5bc 8311 17bd e159 573d
000003f0: c57f 293c 76a3 fbbc 526d 1e3c c12f c63d

conv1.bias f4 [64]
0.014523901 -0.074714534 0.09755934 -0.07682272 -0.030525208 -0.11301634 0.034864485 0.008942223
0.010787684 0.10845832 0.018882139 0.103377566 0.09025827 -0.0043310584 0.01781306 0.08324013
-0.0811688 0.026112942 0.032210883 0.011852358 -0.0032859289 0.006646287 0.020846615 0.10198558
-0.032196697 0.049824305 -0.014268929 -0.016320892 0.026682831 0.0700596 0.048193086 -0.019909829
-0.009263833 0.07472647 0.09446951 0.08647676 0.018112097 0.025903849 0.026352206 0.05572858
-0.047592167 0.10167816 0.04057393 -0.02558738 -0.031046906 0.079645365 0.06708603 -0.075278595
-0.017072784 0.079388 0.02228367 0.059853274 0.069936454 0.10901824 0.029938035 0.07224587
0.05949495 -0.064191975 0.05378663 0.017155364 -0.054042514 0.08014381 -0.040035438 0.089769945
00000000: a8f5 6d3c ef03 99bd 31cd c73d 3b55 9dbd
00000010: 0010 fabc 1c75 e7bd 10ce 0e3d 6782 123c
00000020: d3be 303c 651f de3d b7ae 9a3c 9eb7 d33d
00000030: 54d9 b83d 8deb 8dbb b2ec 913c cd79 aa3d
00000040: d43b a6bd cfea d53c 8fef 033d 6430 423c
00000050: bd58 57bb 19c9 d93b 85c6 aa3c d1dd d03d
00000060: afe0 03bd 9214 4c3d 3ac8 69bc 64b3 85bc
00000070: f495 da3c 687b 8f3d 1d66 453d f019 a3bc
00000080: 55c7 17bc 310a 993d 3b79 c13d ba1a b13d
00000090: d25f 943c 4f34 d43c 95e0 d73c a743 643d
000000a0: 01f0 42bd a43c d03d d930 263d a09c d1bc
000000b0: 1556 febc 1c1d a33d 6764 893d aa2b 9abd
000000c0: 39dc 8bbc 2d96 a23d 3e8c b63c b528 753d
000000d0: d83a 8f3d f444 df3d 9c40 f53c a5f5 933d
000000e0: fab0 733d 1577 83bd 5f4f 5c3d 6889 8c3c
000000f0: af5b 5dbd 7022 a43d 33fc 23bd 4ed9 b73d

conv2.weight f4 [32, 64, 1, 1]
0.106752895 -0.051754154 0.1112912 0.066352405 -0.0027773823 0.110849746 0.09169824 0.017607046
-0.08062123 0.00080044614 0.035391293 0.09569974 0.055132326 -0.015129557 0.018017357 -0.0012920481
-0.04343605 -0.078027286 0.08891743 0.034490388 -0.08234685 0.0933738 0.11243185 0.0007306342
-0.10880552 -0.17594045 0.09005192 0.01817916 -0.03590516 -0.07408716 -0.0055302917 -0.025759317
0.12175944 0.0009423577 0.057629414 0.04568443 -0.038661655 0.13535205 0.078502126 0.028469866
0.016277945 0.00865806 0.028777521 -0.042959973 0.038114145 -0.10469221 0.09130614 0.019056192
0.028186247 0.07924032 -0.094721854 -0.03601061 0.022058327 -0.007003948 0.12487625 0.11720831
-0.082596235 0.021067671 -0.022267178 -0.036523193 -0.0054238387 -0.08425385 -0.036717046 0.122165784
-0.07686806 0.07043668 -0.036976274 0.11537243 0.116021805 0.02642893 0.17347778 0.06911343
-0.06653295 0.081911296 -0.050854284 0.04250552 0.12863994 0.027944114 -0.07256433 0.10443038
0.12805945 -0.107558936 0.0358675 0.0821344 -0.014799846 -0.015402525 -0.061388206 0.10488583
0.0269478 -0.042490322 -0.034464736 -0.009441588 0.031571917 0.06531908 -0.0200745 -0.04487533
0.1301743 0.029485382 0.09300942 -0.12926544 0.02733694 -0.027051948 0.09797853 0.01524323
-0.095324524 -0.09692665 -0.098469645 -0.045396224 0.003659484 -0.09991933 0.11714068 -0.11584836
0.0071073836 -0.040589474 -0.01736587 -0.0021432901 0.09521817 0.12538745 -0.10735345 0.16640572
0.052242696 0.04098047 -0.022713298 0.098667435 0.13698071 0.073877856 0.0017045698 0.1443695
0.11379464 0.10008924 0.15563045 -0.001349878 0.021941155 -0.04808354 -0.05942138 -0.019091226
0.016716436 0.014070192 -0.102673724 0.08870023 0.049249064 -0.062012333 -0.025601763 0.060149606
-0.0480127 -0.034987934 -0.15526676 0.13281678 -0.055469938 -0.047125537 -0.017916327 0.1353991
-0.115185246 0.19756584 -0.090267874 0.13593714 0.11095098 0.017056972 0.07906442 -0.060440253
0.044255827 0.052243102 0.039215818 -0.054078378 0.009429812 -0.06538269 0.05623265 -0.082049094
0.07203452 0.110288896 -0.03207424 -0.08375293 -0.08515151 0.0070259483 0.1296274 -0.0067109508
0.14735302 -0.05095524 0.00033166667 0.047547504 -0.13072102 -0.04223939 0.029697325 -0.12105703
0.008620892 0.038292162 -0.03972978 -0.13448893 -0.11570184 -0.20222907 -0.122586 0.08687692
0.06617127 0.09657033 0.10288876 -0.009286373 -0.15545829 -0.059531182 0.012411127 0.17834875
-0.047379185 -0.118906364 -0.050811026 0.12525427 0.14974305 -0.0707904 0.36868596 0.16472925
0.09143763 0.051437426 0.18029585 -0.055122294 -0.1781024 -0.10334026 -0.024626212 0.14449023
0.08248948 0.021066293 -0.012426873 -0.00699711 -0.053989884 -0.10509284 -0.012240114 0.16891274
0.13958849 0.017386176 0.15453987 0.08652818 0.10379213 0.099733554 -0.0073212776 -0.019387972
-0.017103542 -0.046126228 0.061490033 0.16950668 0.04771623 -0.2042418 0.12988216 -0.08680236
-0.1297473 -0.009042548 -0.010268476 -0.08195292 0.20552564 0.02646105 0.017841147 0.15832952
0.022868259 -0.006592681 0.09280864 -0.067148596 -0.0812202 0.07288757 -0.13676809 0.13857412
00000000: 43a1 da3d 2afc 53bd a4ec e33d c5e3 873d
00000010: be04 36bb 3105 e33d 49cc bb3d a73c 903c
00000020: be1c a5bd 08d5 513a 76f6 103d 3afe c33d
00000030: 6fd2 613d f6e1 77bc 2399 933c f159 a9ba
00000040: 00ea 31bd c5cc 9fbd 571a b63d cb45 0d3d
00000050: 77a5 a8bd c33a bf3d ab42 e63d 0888 3f3a
00000060: 6ed5 debd bc29 34be 246d b83d 76ec 943c
00000070: 4a11 13bd 02bb 97bd 7337 b5bb 3405 d3bc
00000080: 035d f93d 8e08 773a d20c 6c3d 991f 3b3d
00000090: af5b 1ebd ba99 0a3e b9c5 a03d a339 e93c
000000a0: 5359 853c 89da 0d3c d6be eb3c ccf6 2fbd
000000b0: 941d 1c3d df68 d6bd b7fe ba3d bb1b 9c3c
000000c0: d8e6 e63c c048 a23d 88fd c1bd dd7f 13bd
000000d0: aab3 b43c 6081 e5bb 1fbf ff3d e90a f03d
000000e0: 3728 a9bd 1c96 ac3c a869 b6bc 5899 15bd
000000f0: 75ba b1bb 488d acbd 9d64 16bd 0e32 fa3d
00000100: 006d 9dbd 1b41 903d 6f74 17bd 6148 ec3d
00000110: d79c ed3d 7c81 d83c 29a4 313e 588b 8d3d
00000120: 6d42 88bd 1cc1 a73d 954c 50bd 451a 2e3d
00000130: 30ba 033e 0eeb e43c 9c9c 94bd 98df d53d
00000140: 0422 033e dc47 dcbd cde9 123d 1536 a83d
00000150: 0e7b 72bc df5a 7cbc 3372 7bbd 62ce d63d
00000160: a2c1 dc3c 550a 2ebd e52a 0dbd e4b0 1abc
00000170: 8e51 013d 03c6 853d 4773 a4bc 32cf 37bd
00000180: 694c 053e 548b f13c b97b be3d 295e 04be
00000190: b8f1 df3c 0c9c ddbc f8a8 c83d bebe 793c
000001a0: 8139 c3bd 7b81 c6bd 74aa c9bd 64f1 39bd
000001b0: f4d3 6f3b 81a2 ccbd 74e7 ef3d e841 edbd
000001c0: 0ee5 e83b 2641 26bd de42 8ebc 7176 0cbb
000001d0: be01 c33d 9165 003e 20dc dbbd 4366 2a3e
000001e0: 70fc 553d 23db 273d 3d11 babc 2712 ca3d
000001f0: ac44 0c3e 464d 973d df6b df3a 99d5 133e
00000200: 2a0d e93d 96fb cc3d 975d 1f3e 64ee b0ba
00000210: f0bd b33c 3ff3 44bd d563 73bd 3465 9cbc
00000220: e8f0 883c aa86 663c 9a46 d2bd 77a8 b53d
00000230: 63b9 493d a500 7ebd caba d1bc 6f5f 763d
00000240: f7a8 44bd 824f 0fbd 40fe 1ebe 1f01 083e
00000250: 7234 63bd b506 41bd 43c5 92bc 10a6 0a3e
00000260: 3ee6 ebbd b34e 4a3e 5dde b8bd 1b33 0b3e
00000270: 443a e33d 10bb 8b3c 87ec a13d 3390 77bd
00000280: 9945 353d ddfc 553d c4a0 203d 4a81 5dbd
00000290: 807f 1a3c 5ce7 85bd 3554 663d 5b09 a8bd
000002a0: d686 933d 25df e13d 4760 03bd a886 abbd
000002b0: ea63 aebd ed39 e63b 0cbd 043e 89e7 dbbb
000002c0: b6e3 163e 71b6 50bd 8ce3 ad39 2cc1 423d
000002d0: bbdb 05be 3603 2dbd ce47 f33c c0ec f7bd
000002e0: a43e 0d3c 3ed8 1c3d b2bb 22bd 77b7 09be
000002f0: 16f5 ecbd 2315 4fbe 5e0e fbbd 87ec b13d
00000300: ce84 873d aac6 c53d 58b7 d23d df25 18bc
00000310: 7530 1fbe f8d6 73bd 0a58 4b3c 0ea1 363e
00000320: ad10 42bd 2e85 f3bd 391f 50bd a842 003e
00000330: 3e56 193e 8ffa 90bd 68c4 bc3e c9ae 283e
00000340: a743 bb3d 0db0 523d 7a9f 383e eac7 61bd
00000350: 7a60 36be 0fa4 d3bd e9bc c9bc 3ff5 133e
00000360: 3ff0 a83d 3893 ac3c 159a 4bbc 0348 e5bb
00000370: 7f24 5dbd ea3a d7bd c28a 48bc 76f7 2c3e
00000380: 49f0 0e3e 746d 8e3c b33f 1e3e b035 b13d
00000390: f890 d43d 1b41 cc3d 54e7 efbb 86d3 9ebc
000003a0: ba1c 8cbc dbee 3cbd f9dc 7b3d 2993 2d3e
000003b0: 1872 433d c324 51be d4ff 043e 70c5 b1bd
000003c0: 7adc 04be 3227 14bc 1c3d 28bc efd6 a7bd
000003d0: 5075 523e d8c4 d83c 9927 923c 2221 223e
000003e0: 3756 bb3c 6b07 d8bb 7512 be3d 3485 89bd
000003f0: c756 a6bd 1446 953d ef0c 0cbe 60e6 0d3e

conv2.bias f4 [32]
-0.045583367 -0.03283515 -0.048902806 -0.056535423 0.045064297 0.05785359 0.012501732 0.047499128
0.07866562 0.10324283 0.057399534 0.017770484 -0.05541621 0.09525056 -0.078647405 0.059998307
0.043174434 0.12163657 -0.0025456091 -0.0071654734 0.05329287 0.0504262 -0.007851275 0.054604337
-0.039664526 0.004415267 0.04980516 0.06359649 -0.070495345 -0.008827859 -0.031770486 0.085843876
00000000: a0b5 3abd 267e 06bd 4f4e 48bd b091 67bd
00000010: 5795 383d e3f7 6c3d 11d4 4c3c 728e 423d
00000020: 711b a13d fa70 d33d c61b 6b3d 6893 913c
00000030: 1cfc 62bd ba12 c33d e411 a1bd c9c0 753d
00000040: add7 303d 981c f93d 3cd4 26bb 59cc eabb
00000050: a049 5a3d b48b 4e3d a2a2 00bc cca8 5f3d
00000060: 4577 22bd f2ad 903b 7f00 4c3d e03e 823d
00000070: dd5f 90bd b9a2 10bc c521 02bd eace af3d

conv3.weight f4 [1, 32, 5, 5]
-0.019980164 -0.0020462025 -0.012558868 0.025471572 0.0041869716 0.03731493 -0.025637064 -0.027393809
0.01334171 0.024192173 -0.0064033517 0.034068957 0.014195278 -0.00011805482 -0.00044752588 -0.0011639956
0.03920649 0.01801454 0.028403895 -0.009787464 -0.025100647 0.027767029 -0.014793211 -0.026633475
0.0122184595 -0.020671526 0.01098873 0.031939488 0.10656872 -0.048151746 -0.06657975 0.061778206
-0.032091465 -0.03737325 -0.03690467 -0.044695545 -0.053143084 -0.033107147 -0.010760195 0.07144016
-0.010784269 -0.08460085 -0.0465782 -0.014520423 -0.013682153 -0.061598197 0.009642644 -0.017527955
-0.09686994 -0.031991746 0.035470292 0.059764802 0.010553154 -0.007345128 -0.0037068115 -0.006590158
0.0196726 0.05492105 0.029073587 0.023220642 -0.0033320994 0.039080292 0.08729421 0.014055524
-0.0058416547 -0.030337054 0.04211217 0.017911112 -0.016608339 -0.00213445 -0.023196088 0.0007059109
-0.0009708289 0.01482792 0.015124559 0.049659822 -0.023139236 -0.046418034 0.02828897 -0.060430616
-0.014338308 -0.017156413 -0.069109425 -0.018344156 -0.0006002392 -0.05293368 -0.0022530204 -0.052705735
-0.016325075 0.0041902172 0.015693398 0.05389957 0.026484702 -0.021889688 0.05035825 0.012949019
0.06884329 0.0025292407 -0.060312077 0.061460912 -0.0067411824 -0.016443059 -0.019299293 0.05781662
-0.02437423 -0.09883818 -0.060750354 -0.00668003 -0.006662706 -0.03692453 0.009476536 -0.008706097
-0.04983785 0.026410483 -0.030406462 -0.0018877393 -0.045788076 0.03328512 0.059070617 0.018438302
-0.038882636 -0.06258554 0.1095243 0.0555055 0.0036862977 0.015869312 0.01751057 -0.021589505
-0.016713599 0.00702519 0.018618537 0.009163654 0.036774337 0.008921927 -0.00086127524 0.039779484
-0.0049260203 -0.023465885 0.025260834 -0.018829426 0.01771545 -0.023888312 0.018082997 0.023468276
0.035408765 -0.024626324 -0.0279929 0.0034433578 0.023792315 -0.022660198 -0.0001755299 0.022907427
0.02811782 0.02832877 0.029244734 -0.018256996 0.0058019795 0.03732737 -0.015885774 0.034190547
0.0053116856 0.033511005 -0.006885755 0.00053437776 0.01796711 0.019554334 0.022409035 -0.01704248
0.027760029 -0.023501894 -0.0075993054 -0.028312482 0.027093738 0.021293757 0.00060057023 -0.012746948
-0.033468943 -0.014091615 -0.028848993 0.012161877 -0.023567688 0.023185778 0.010524888 -0.00910172
-0.036757506 0.0005921154 0.0128048435 -0.019605074 0.01810484 -0.023243092 0.012841955 -0.011936954
-0.00028071567 0.017348023 0.00884663 0.0063722404 0.028615618 -0.038331293 -0.026484272 -0.020249251
0.028815702 -0.021330507 0.015604212 0.015892718 -0.005056203 0.025934413 0.0014044149 0.006937754
6.146278e-05 -0.0056656525 0.0010577795 -0.018833399 -0.015603333 0.03057066 -0.015387762 -0.012970454
-0.013348031 0.015926084 -0.0228495 -0.010104455 0.026004707 -0.03313061 0.033031177 -0.032075405
0.015073336 -0.024377804 -0.03500956 -0.0033668613 -0.008091742 -0.008937861 0.019718578 0.027308399
0.0048701013 0.017103583 -0.016437614 -0.03486777 -0.0017059323 0.003695582 -0.027307862 -0.0019180967
-0.007537401 0.010186447 0.034361206 0.021753445 -0.02022673 0.026481254 0.009106054 -0.012193233
-0.018046161 0.038275484 0.0027611514 0.024961837 0.020944944 -0.0017539242 -0.013045543 -0.0026488716
00000000: 71ad a3bc 9519 06bb b6c3 4dbc c2a9 d03c
00000010: dd32 893b 8ad7 183d d204 d2bc fb68 e0bc
00000020: 3097 5a3c aa2e c63c 35d3 d1bb e48b 0b3d
00000030: 5093 683c 3394 f7b8 e8a1 eab9 3691 98ba
00000040: fc96 203d 3b93 933c 49af e83c 995b 20bc
00000050: df9f cdbc ae77 e33c 395f 72bc 722e dabc
00000060: ef2f 483c 5557 a9bc 130a 343c fbd2 023d
00000070: b340 da3d c43a 45bd f75a 88bd 250b 7d3d
00000080: 5772 03bd b114 19bd 5a29 17bd ad12 37bd
00000090: 90ac 59bd 5c9b 07bd 874b 30bc 384f 923d
000000a0: 81b0 30bc 3643 adbd c8c8 3ebd 11e7 6dbc
000000b0: 1c2b 60bc 644e 7cbd 2efc 1d3c c996 8fbc
000000c0: bf63 c6bd c709 03bd 4c49 113d f0cb 743d
000000d0: 23e7 2c3c 66af f0bb faed 72bb 41f2 d7bb
000000e0: 6f28 a13c e5f4 603d bb2b ee3c 3739 be3c
000000f0: 5a5f 5abb a812 203d 4fc7 b23d 2449 663c
00000100: 5a6b bfbb 6a85 f8bc d07d 2c3d 53ba 923c
00000110: 360e 88bc 21e2 0bbb b905 bebc e10c 393a
00000120: 3a7f 7eba cef0 723c 00cd 773c 1968 4b3d
00000130: 7f8e bdbc d620 3ebd 45be e73c 1886 77bd
00000140: 39eb 6abc 9b8b 8cbc 3e89 8dbd 7c46 96bc
00000150: 5f59 1dba fdd0 58bd 69a7 13bb f8e1 57bd
00000160: 2abc 85bc 174e 893b 718f 803c ccc5 5c3d
00000170: 72f6 d83c 0152 b3bc 7444 4e3d 1f28 543c
00000180: b6fd 8c3d 9ec1 253b cc09 77bd 70be 7b3d
00000190: 23e5 dcbb 98b3 86bc 8d19 9ebc 1fd1 6c3d
000001a0: 77ac c7bc ac6b cabd 5dd5 78bd 27e4 dabb
000001b0: d452 dabb 2d3e 17bd 7943 1b3c 04a4 0ebc
000001c0: c622 4cbd cc5a d83c f916 f9bc 056e f7ba
000001d0: 478c 3bbd fa55 083d 08f4 713d ec0b 973c
000001e0: 6643 1fbd d92c 80bd 474e e03d bc59 633d
000001f0: d095 713b 5c00 823c 5472 8f3c 79dc b0bc
00000200: f5ea 88bc 9133 e63b e785 983c 2723 163c
00000210: b0a0 163d 462d 123c 34c7 61ba d0ef 223d
00000220: 746a a1bb 873b c0bc cfef ce3c 2b40 9abc
00000230: fe1f 913c 6cb1 c3bc cb22 943c 8b40 c03c
00000240: c808 113d 25bd c9bc 5e51 e5bc f5a9 613b
00000250: 1ae8 c23c e1a1 b9bc 730e 38b9 5ba8 bb3c
00000260: 5857 e63c bd11 e83c a792 ef3c b28f 95bc
00000270: 881e be3b 96e4 183d e222 82bc 630b 0c3d
00000280: a60d ae3b d642 093d e6a1 e1bb 7c15 0c3a
00000290: c32f 933c 6930 a03c 2793 b73c ac9c 8bbc
000002a0: 0069 e33c 0b87 c0bc 9803 f9bb 94ef e7bc
000002b0: b0f3 dd3c 3f70 ae3c 966f 1d3a 93d8 50bc
000002c0: bb16 09bd 84e0 66bc b954 ecbc 9c42 473c
000002d0: 0611 c1bc 1af0 bd3c 9470 2c3c 611f 15bc
000002e0: 0a8f 16bd 3138 1b3a 68cb 513c d29a a0bc
000002f0: 9a50 943c 4c68 bebc 1067 523c 3793 43bc
00000300: 052d 93b9 711d 8e3c 75f1 103c 3ace d03b
00000310: 4d6b ea3c 4601 1dbd 8bf5 d8bc c2e1 a5bc
00000320: e80e ec3c 51bd aebc cfa8 7f3c 7231 823c
00000330: 81ae a5bb 6874 d43c 5814 b83a 1956 e33b
00000340: 94e5 8038 f0a6 b9bb 31a5 8a3a 8048 9abc
00000350: 1fa5 7fbc 526f fa3c f41c 7cbc 0782 54bc
00000360: b3b1 5abc 6b77 823c e02e bbbc 288d 25bc
00000370: d307 d53c f6b3 07bd b34b 073d 8061 03bd
00000380: 27f6 763c f6b3 c7bc 2f66 0fbd 8fa6 5cbb
00000390: 3a93 04bc 1b70 12bc db88 a13c ddb5 df3c
000003a0: 5f95 9f3b d01c 8c3c 2da8 86bc 82d1 0ebd
000003b0: 9799 dfba 9431 723b bdb4 dfbc a568 fbba
000003c0: 4dfc f6bb 0ee5 263c 56be 0c3d 4834 b23c
000003d0: 87b2 a5bc 37ef d83c 8f31 153c 20c6 47bc
000003e0: 8bd5 93bc c1c6 1c3d 6ff4 343b c47c cc3c
000003f0: bb94 ab3c eee3 e5ba f9bc 55bc b198 2dbb
